asl_dense.tflite (tflite, 74656 bytes, 6 tensors)

arith.constant f4 [26, 64]
00000000: fee4 22bf 65f0 12be 0964 183d 557a c93e
00000010: 3927 46bf 8ea3 a93e f7a9 e7bc 2af2 3c3f
00000020: fdf7 823d adf8 9dbf e683 03be 969e 6ebf
00000030: 1bcd d03d d16f 23be ef1b ce3d c240 47be
00000040: 0ab1 a33e a8d5 6cbf caa1 d63e 0e33 123e
00000050: 6af5 07c0 f59d c63e a555 53be 6146 aabe
00000060: 5366 2d3e f223 7f3e b1cb a83e 39b3 78bd
00000070: b21e 3f3e 19bd ffbe 37fd aebf cc27 d6bd
00000080: 14f9 6d3e a829 e2bd 1738 8cbe 30a4 ed3e
00000090: ac4f ac3d 8505 bdbe f70f 22bf 6114 9e3e
000000a0: 1f59 cdbe 6589 2b3f 77c3 c33e 09f5 2abd
000000b0: a319 a1be 76cd 5b3d 9fa1 0bbf e0aa 853c
000000c0: 6a98 19bf 11d3 e23d c123 45bc 0d7a 05c0
000000d0: ad64 d33e 451b 79be d35e 463e abe8 2b3e
000000e0: 087a 97bf f4d2 8fbe 1fcd 2bbf 4dcc bfbf
000000f0: 8e0d 81be eddc 0a3f 1a51 a73e af22 a5bd
00000100: 2904 b33d d4b5 ee3e a3db adbe e2a0 dcbe
00000110: bcf4 85bf fdf5 42bf 666b 01bf e384 13be
00000120: 6852 453e 6752 ccbd 076a 97be 8474 45bf
00000130: 298d 81be 82ae b13d 32bf 26be 17e3 a4bf
00000140: fc93 dbbe 3ab9 1ebe e064 183f 9200 343e
00000150: 4534 60bf a28e 24be 02d0 f33e 69cd 0a3f
00000160: 95a1 4bbe ef39 373d beb3 923e 1668 f8bd
00000170: 9777 bd3e 582a 163e d0b5 f93e da06 433d
00000180: 37bb 4dbe 1f25 bd3e 8aaa 80bb 9398 06be
00000190: 6495 f4bd 6124 a5be 7c8e 3abf a28a 07bd
000001a0: dd47 cb3e bf42 5cbf 7e76 933e 5ca3 7ebe
000001b0: 1864 04bf 48f2 acbf d60d 70bf 11ca c2bd
000001c0: 2ec7 55bf aff2 f53d bf89 133e 91c1 943c
000001d0: fdc8 3abf 52c5 53bf 1cdd 8b3e 521d 02bf
000001e0: 8f45 e93e e40c 7fbd 76be eb3e 7531 e73e
000001f0: 4258 ed3e a063 36bf f5d7 ffbc 2063 b73e
00000200: 3343 b93d b3e6 923e 1e8a 8e3e 2069 a13e
00000210: 0fa6 463e 0b68 94bf 5c9f 28be af78 2ebe
00000220: d749 193d 7862 17be 6b86 d2bf ccb7 69be
00000230: 133a aabf c5da 993e 4e44 00be ad21 8abf
00000240: 4a89 9ebe 314e 0cbd 664c 09bf 44cb 90be
00000250: 2512 a2be 0b37 fcbe 59fa a73e 21d2 f43e
00000260: 1a49 6c3e 01d4 043f f89d 12be c615 ca3c
00000270: 16d8 a43e f95c 71be 6a78 df3e 4517 ad3e
00000280: fda4 a0bd 10ca f53e 3c36 123d 4f48 183e
00000290: 1f32 893e aba3 2d3e 92a7 41be 58ec 9cbf
000002a0: bea4 943d e3a2 15bf 9499 753e 68bb f13d
000002b0: 16f7 02bf a26f 533e b95b e6bf edb8 003e
000002c0: 16c4 7d3d 5ec0 84be a3b8 34bf 3708 33be
000002d0: ddaf efbe 3956 debf ff1c 833d c9e8 21bf
000002e0: 737d 45bd 741f 083f 3c45 403f f50b 6f3c
000002f0: e80b 0c3e 7e97 d3be b9b6 7abd a55e ffbe
00000300: 3b6d 843e a99e 59be 9d22 11be 0329 143d
00000310: 4270 a8bd ac82 88bf 5700 2e3b 6768 fb3e
00000320: 783f 923e 1377 ecbe e48a 0e3f 4625 1ebe
00000330: af22 443e aeb1 a73e fe3a a5bf 18d7 a8be
00000340: 5adc dbbe 4de4 29bf 18d7 f0be 7a22 b93d
00000350: 3a2b 913e a6bc 55bf 1d34 4bbe 96f0 233d
00000360: 713a ddbc d67a c93e 4098 f93e 8750 11bf
00000370: 29c4 dd3d 02d7 6dbd 7665 31bf 8baa b63e
00000380: e531 c2bd 9a7a 253d 940f cabf cd0b fbbe
00000390: 673d c4bd edd2 0bbf 7e09 7abe 3478 afbe
000003a0: accb 88be a02a ccbf 02e3 833e a3ec f13e
000003b0: 6a4d 74bf 501b 023f 5f4a 1ebf 7356 5e3e
000003c0: 0650 cd3e f8dc 3bbf 837b 9fbf e27f 1fbe
000003d0: 62bd bcbe 86f4 843e 40e5 b03e f921 98bf
000003e0: 541e b0bd 408b d83e f478 4cbd 8513 3ebf
000003f0: fb1d 0bbe b745 aa3d efc6 25bd 8905 a2bf
-0.63630664 -0.14349516 0.037204776 0.39351144 -0.774036 0.33132595 -0.028279288 0.73807013
0.06394956 -1.2341515 -0.12843284 -0.9321073 0.10195371 -0.15960623 0.10063922 -0.19458297
0.31971008 -0.92513514 0.4192031 0.14277288 -2.124354 0.38792387 -0.2063814 -0.3325682
0.16933565 0.24916056 0.32967904 -0.060717795 0.18664053 -0.49948958 -1.3671025 -0.104568094
0.23239547 -0.110431015 -0.27386543 0.46414328 0.08413634 -0.36918274 -0.6330561 0.30874923
-0.40107056 0.6700652 0.38235065 -0.04173759 -0.31464872 0.05366274 -0.5454349 0.016316831
-0.5999819 0.11075414 -0.01203245 -2.0855744 0.41287747 -0.24326809 0.1937211 0.16787975
-1.1834116 -0.28090632 -0.67109865 -1.4984223 -0.25205654 0.54243356 0.32679063 -0.08063256
0.08741028 0.466231 -0.33956632 -0.43091494 -1.0465312 -0.761566 -0.505545 -0.14406161
0.19269717 -0.099766545 -0.2957308 -0.77130914 -0.2530301 0.08675863 -0.16283873 -1.2881802
-0.4288634 -0.15500346 0.59528923 0.17578343 -0.87579757 -0.16070035 0.47619635 0.5421968
-0.19885857 0.044732984 0.28652757 -0.12129228 0.37005302 0.1466459 0.48771524 0.047613956
-0.20090948 0.36942384 -0.00392658 -0.1314414 -0.119425565 -0.32254317 -0.72873664 -0.033091195
0.39703265 -0.86039346 0.2880134 -0.24867004 -0.5171523 -1.3511438 -0.9377111 -0.09511197
-0.8350705 0.12009179 0.14408015 0.018158706 -0.72962934 -0.8272296 0.2731713 -0.5082599
0.45560881 -0.062268153 0.46043748 0.4515492 0.46356398 -0.71245766 -0.031230906 0.35817814
0.0904602 0.28691635 0.2783975 0.31525517 0.19399284 -1.1594251 -0.16467041 -0.17038225
0.037423935 -0.14783657 -1.6447271 -0.22824019 -1.3298973 0.3004972 -0.12526056 -1.0791527
-0.30964118 -0.034254257 -0.536322 -0.2828008 -0.31654468 -0.49260744 0.32808188 0.47816566
0.23074761 0.5188599 -0.14318073 0.024668586 0.3219611 -0.23570623 0.43646556 0.33806816
-0.07843969 0.48005724 0.035696253 0.14871334 0.26796052 0.16956966 -0.18911579 -1.2259626
0.072579846 -0.5845167 0.23984367 0.11803323 -0.51158273 0.20648053 -1.7996742 0.12570544
0.06195458 -0.25928015 -0.70594233 -0.17483602 -0.4681386 -1.7370063 0.06402015 -0.63245827
-0.04821534 0.53172994 0.75105643 0.014590253 0.13676417 -0.41326517 -0.061209414 -0.49876896
0.25864586 -0.2125193 -0.1417336 0.036171924 -0.082245365 -1.0664878 0.0026550496 0.4910309
0.28564048 -0.46184596 0.5568068 -0.15443906 0.19153856 0.32752746 -1.2908628 -0.32976604
-0.42941552 -0.66363984 -0.47039104 0.09039779 0.28353292 -0.8349098 -0.19844098 0.040024363
-0.027005406 0.3935153 0.4874897 -0.567635 0.1082843 -0.058066376 -0.6929544 0.3567699
-0.09482173 0.040400125 -1.5786004 -0.4903244 -0.09582024 -0.5461872 -0.24417683 -0.34271395
-0.2671789 -1.5950508 0.2575913 0.47250852 -0.95430624 0.50822926 -0.6183223 0.21712665
0.40100116 -0.73384047 -1.2459568 -0.15576127 -0.36863238 0.25967807 0.34549904 -1.1885368
-0.08599535 0.4229374 -0.049920037 -0.74248534 -0.13585655 0.08314078 -0.04047292 -1.2657939

arith.constant1 f4 [64, 128]
00000000: a77d 9bbe 36a2 98bd 00a7 a03c 5888 a3bd
00000010: 54d7 e9bd b938 05bf c259 b4bd 30df 653c
00000020: 10e3 243c e281 ebbe 6a5c 9f3d c753 d23f
00000030: a817 883d 1beb 053f f87f 793e 2e45 e53e
00000040: db30 24bf d4b2 2dbe c491 04be 605b 973b
00000050: f48c 4bbd b63e f43d bf13 fc3d 4579 1f3e
00000060: 5651 ca3d 7aef b73d 4ed0 9d3d 324c 83bb
00000070: b48f 863e ed62 5bbd 7cca 7b3d cd55 3abd
00000080: afbf c3bd 730a c6bd 0b54 473f a23f 963d
00000090: be51 ec3d 1071 b1bc 9508 5d3f f81f 27be
000000a0: f0f5 423d 8093 393c 20db 9d3b 8838 e6bd
000000b0: 873e cabd 1624 a03d 1f78 903f 4122 303e
000000c0: c0c7 f7bb e0a0 693e 00d8 15be d8b8 8f3d
000000d0: 6832 febc b8dd 52be e8c7 b63c cd59 46bd
000000e0: 8c38 00be a5f9 f0bd 38f6 93bc 7430 36bd
000000f0: c99b 0a3e 6d85 20be 9c4b 15bd 88bd c43c
00000100: d3d9 1e3e b0b6 493d c1a8 1e3e 1627 ab3f
00000110: f83b 3dbd d877 4a3e 17c5 b4bd ad1d c43e
00000120: 8ce5 793d 1a08 a93e 608c cd3b be14 f63d
00000130: 7162 af3f d3ff 473f a2f9 ab3d e45a ae3e
00000140: 4255 853d c80f cdbc 519c 1c3e 8e18 cd3d
00000150: 0ec3 f6be 1ad5 03be ae52 be3d 5047 bcbd
00000160: ba6b 343e afbd 883d c875 403d bb28 b03e
00000170: 65a0 88bd 203f f5bd bc30 88bd 6fb2 143f
00000180: b9a3 e6be fb67 333e c6d9 c93d 9200 d03d
00000190: 0ac9 ffbd 214f 41bd 72e8 923d 3da8 d23d
000001a0: e89f 1f3f f0ec a33c 1c87 acbd b2ee 32be
000001b0: 383c ad3c b36f d7bd 96ce f13d 9bc8 09be
000001c0: d756 4a3c c656 2bbe 9238 2abd c20a b03f
000001d0: 5a84 273e cd1d 823e 12d2 17be f8fd cbbc
000001e0: fe6a 2bbe 7783 86be 5245 7e3d e3b3 d3bc
000001f0: f6dc e53d 9d68 2c3e 4dbc dc3d b653 e2be
00000200: 41c4 5f3e 00fc 383a 00a3 68bc d880 ac3c
00000210: b415 debd ab7e b03e 419c 26bf b387 24be
00000220: 0834 363d cf6d 7e3e f22e d03d cdb8 e33e
00000230: 4333 253e 1801 2fbe 4204 973e 2e1c 19be
00000240: d0bc 3a3f 8322 213e e06b 4fbd 4cf5 343d
00000250: 6c40 3fbd 123f ce3d 2688 893e a2f4 1abe
00000260: a55d 2dbe 03b0 163e f4a7 aebd b757 623e
00000270: c490 bebe 75fb 7c3c 5c08 34be bdd1 88be
00000280: 794b b7bd 2ad8 7abd 4de9 743e 90cb fc3c
00000290: 4fbd 00be 40c0 913b b6df 013e 1c21 85bd
000002a0: dbd6 30be 60a9 3ebd 486f fcbd 539f b53e
000002b0: 167a 043e e09d 723d 1c7d e23e 019b edbd
000002c0: 6ead cb3d 1b81 b2bd 8da3 42bd 8565 10be
000002d0: 1afb cd3d fea2 0f3e 189d f7bd 2787 073e
000002e0: 7514 74be 246f 333f 2891 0fbd 7172 2d3e
000002f0: 67c2 8cbd 77cd 43bd 9223 ea3d 5693 64bd
00000300: 1722 323e 9e57 f83d c022 023f 1104 513f
00000310: 0642 57bd 68fd 133f c8e6 ec3c 16cd 553f
00000320: 5ba8 013e 64b8 56bd 997d 143e 7e1b ebbd
00000330: 6047 ed3e a23b f33e 0bef 0e3e ba47 0a3f
00000340: 9730 0b3e 7938 0f3e 8bc3 8abd b5e1 10be
00000350: 0bf8 97be d853 8e3d c1cd 96bd 88a6 f53c
00000360: 76ae f93d 67e4 d53d 50fe 5fbc 484a 833f
00000370: 67c6 1b3e fc36 013d b9d1 70be b5b9 c23e
00000380: 7038 9cbe 1ace ce3d 783d 57bd 2649 27be
00000390: 8fd0 adbe b927 ae3c 7a47 513f 0d91 aa3e
000003a0: 6929 853f 5017 3ebd 179c 983d f3c4 09be
000003b0: b0b2 a03c c662 e83d 4e3f d33d a22e 183e
000003c0: 5e23 f53e 8c83 5d3f 10e7 673e 7642 293f
000003d0: f010 e43e fd7a 18bd d4c5 413b add6 153e
000003e0: 2905 15be 2cf3 63b9 4ecd dfbe a940 383c
000003f0: 3a8f f1bd d4f5 01be 5c4e 20be 1d82 06be
-0.30369303 -0.07452814 0.019610882 -0.0798499 -0.11418024 -0.52039677 -0.088061824 0.014030263
0.010063902 -0.4599753 0.077812985 1.6431817 0.06645137 0.5231187 0.24365222 0.44779342
-0.6413705 -0.16962749 -0.1294623 0.004619047 -0.04969497 0.11926024 0.12308454 0.15573604
0.09878795 0.089812234 0.077057466 -0.004006886 0.26281512 -0.05356114 0.0614724 -0.045491982
-0.09558045 -0.09669962 0.77862614 0.07336356 0.115390286 -0.021660358 0.8634122 -0.16320789
0.047597826 0.011326671 0.0048173815 -0.11241251 -0.098752074 0.07819383 1.1286658 0.17200567
-0.007561654 0.22815275 -0.14633179 0.07017678 -0.031029895 -0.20592391 0.02231212 -0.048425484
-0.12521571 -0.11766366 -0.018061742 -0.044479802 0.1353599 -0.15675898 -0.03644906 0.024016157
0.15512781 0.04924649 0.15494062 1.3371303 -0.04619977 0.1977228 -0.088266544 0.3830389
0.06100993 0.33013994 0.0062728375 0.12015675 1.3701917 0.7812473 0.08397223 0.3405372
0.06510402 -0.02503194 0.15294005 0.10014449 -0.4819569 -0.1287426 0.09293114 -0.09193289
0.1761922 0.06676804 0.046987325 0.34406075 -0.06671218 -0.11974931 -0.0664992 0.5808477
-0.45046785 0.17520134 0.0985599 0.10156359 -0.12489517 -0.047194604 0.07173242 0.10285995
0.6235337 0.020010442 -0.084242076 -0.17473868 0.021146879 -0.10519352 0.11806981 -0.13455431
0.012349806 -0.1673232 -0.041557856 1.3753283 0.16359082 0.2541336 -0.14826229 -0.024901375
-0.16740033 -0.26272175 0.062077828 -0.025842613 0.112237856 0.16836782 0.10778103 -0.4420449
0.21852209 0.0007056594 -0.0141990185 0.021057531 -0.10843983 0.3447164 -0.65082175 -0.1606739
0.044483215 0.24846576 0.10165204 0.4447693 0.16132836 -0.17090261 0.29495436 -0.14952156
0.72944355 0.15735821 -0.050639987 0.044179246 -0.046692297 0.100706235 0.26861686 -0.15132383
-0.16930254 0.1471558 -0.08528128 0.22103773 -0.37219822 0.015440811 -0.17581314 -0.26722518
-0.08949942 -0.061241306 0.23917122 0.030858785 -0.12572215 0.004447967 0.12682995 -0.06500456
-0.17269461 -0.046548247 -0.12325913 0.35473117 0.12937197 0.059232593 0.44236076 -0.1160183
0.099451885 -0.08716031 -0.047519255 -0.14101227 0.100576594 0.1402702 -0.1209051 0.1323515
-0.23835929 0.7009146 -0.03505054 0.16938187 -0.06873017 -0.04780337 0.11432566 -0.055804573
0.17395817 0.12126087 0.50834274 0.8164683 -0.0525532 0.5780854 0.028918639 0.8351606
0.12661879 -0.052421942 0.14501037 -0.11479853 0.46343517 0.47506434 0.13958375 0.54015696
0.13592754 0.13986386 -0.06775578 -0.141486 -0.2968143 0.06949586 -0.07363463 0.029986635
0.12191479 0.10443955 -0.013671473 1.0257044 0.15212403 0.031546578 -0.23517503 0.38032308
-0.30511808 0.100979045 -0.052548856 -0.16336498 -0.3394818 0.021259176 0.8174969 0.3331379
1.0403262 -0.04640895 0.07451647 -0.13454036 0.019616455 0.113469645 0.10314809 0.14861539
0.47878546 0.8652885 0.22646737 0.66117036 0.44544172 -0.037226666 0.0029567378 0.14632674
-0.1455275 -0.00021738996 -0.43711323 0.011245885 -0.117948964 -0.12691432 -0.15654892 -0.13135572

arith.constant2 f4 [26]
00000000: 9ddf 8f3d 69cd 183a 7ef1 31be 7e28 ee3b
00000010: d63c cd3d c81b 7c3e f944 003e 7123 443e
00000020: b965 2e3e cd4b 19bf a7eb 7cbe bb26 3ebe
00000030: 1eec 97bd c6b6 50bd 97ed 9e3e 97e6 143f
00000040: f7f8 ebbd 913e 803d 8666 ce3e 0046 24bc
00000050: 0d46 923e b41a 54be ab8e b0be 3e96 febd
00000060: 6d7a 313d 9bd0 afbd
0.07025073 0.00058289483 -0.17377278 0.0072680106 0.10021369 0.24619973 0.12526311 0.19154145
0.17030992 -0.5988129 -0.24699269 -0.18569462 -0.07418083 -0.050955556 0.31040642 0.5816435
-0.11522096 0.062619336 0.40312594 -0.010026455 0.2856907 -0.20713311 -0.34483847 -0.12431
0.043329645 -0.0858471

sequential_1/dense_1_2/BiasAdd/ReadVariableOp f4 [64]
00000000: 5d02 d63e 07d6 e33e 84f9 9a3e ec06 043f
00000010: b2e7 21bd dc9d 023f fc1e 373f 80d7 ce3e
00000020: 40d3 273d bc97 213f 07fd 083d a10f 06be
00000030: 11b1 1f3f bc9a 77be 703f 2b3d 2cf6 013e
00000040: fe61 813e 6752 aabd b9c9 ce3e aa41 933e
00000050: 090f bf3e 540f 8b3e 4ddf 1c3f c80d a1bc
00000060: 2314 103e d11c c03e 4941 fd3e 0328 123f
00000070: 082c 443e 0a24 663e 9c5d 80be 92de 90bd
00000080: b375 aa3e 1d61 4d3d 65a6 4f3e 744d 69bd
00000090: cce1 9c3e e02d debd 32c2 9e3e 4dbb a33d
000000a0: c1db 973e 39cd 933e 99b8 f23e 314e 51be
000000b0: c886 6a3e 83dd 4e3e 6ed3 9d3e 25b7 0d3d
000000c0: 67ef acbd 88a5 6bbd f66d c83e e612 9f3c
000000d0: 26bb 413f 31d5 0a3e cef8 943e e979 72bd
000000e0: eb70 86bd 5bf3 733e 8a51 d73d 53ac b7be
000000f0: 5823 523d 6d29 0d3f 70cb e43e fb3e 9c3e
0.41798678 0.44499227 0.3026849 0.5157306 -0.039527602 0.51022124 0.71531653 0.40398788
0.040972948 0.63122153 0.03344443 -0.130919 0.62379557 -0.2418012 0.041808546 0.12691563
0.25270075 -0.08316498 0.40388277 0.28761035 0.37316158 0.27160132 0.6127823 -0.019659892
0.14070182 0.37521985 0.4946387 0.57092303 0.19157422 0.22474685 -0.25071418 -0.07073702
0.33292922 0.050141443 0.20278318 -0.05695863 0.3064102 -0.10848594 0.31007534 0.07994709
0.29659846 0.2886751 0.47406462 -0.20439984 0.22902977 0.20201688 0.3082537 0.03459849
-0.084441 -0.05753091 0.39146394 0.019418191 0.7567619 0.13557889 0.29096073 -0.059198294
-0.06564506 0.23823301 0.10513599 -0.3587366 0.051303238 0.55141336 0.4468646 0.305168

sequential_1/dense_1/BiasAdd/ReadVariableOp f4 [128]
00000000: 62ed c23b 0000 0000 0000 0000 0000 0000
00000010: b713 dfbb a57e a2bc c009 023d 0000 0000
00000020: 0000 0000 a9b4 c13d 76f7 fcbb 9c84 0fbe
00000030: 0000 0000 9dc8 bbbe 0575 d53d 0e74 42be
00000040: 8789 47be 46b0 c4bb 0000 0000 0000 0000
00000050: 0000 0000 0000 0000 c949 54be 0000 0000
00000060: 0000 0000 0000 0000 0000 0000 9d6f e33d
00000070: a8f0 fdbd 8bf4 bc3d 0000 0000 5ef2 89bd
00000080: 0000 0000 0000 0000 89f3 3ebd 0000 0000
00000090: 0000 0000 0000 0000 6623 3abd 0000 0000
000000a0: 0000 0000 0000 0000 3311 7dbb ea0a cebd
000000b0: 7a11 f63d 0000 0000 647d 64be 0000 0000
000000c0: 98e9 eabb e615 07be 2d13 47bc 0000 0000
000000d0: 0000 0000 9e5a 363e 0000 0000 ba62 40bc
000000e0: c19c cd3d dd9d a6bc 0000 0000 0000 0000
000000f0: 0000 0000 4eb4 50be 0000 0000 0000 0000
00000100: bdd4 69bc 0000 0000 7625 ffbd 459e 0cbe
00000110: 3635 fbbb 93d9 9ebe 0000 0000 a3ba b63b
00000120: 0000 0000 12a6 04be a1ca f0bb 0000 0000
00000130: 8f09 9dbe 7d14 89be 0000 0000 1eb0 43be
00000140: 0000 0000 0000 0000 0000 0000 0000 0000
00000150: f7e7 9b3c 0000 0000 0000 0000 0336 80bb
00000160: c9ed 7bbc 10bb 06be 0000 0000 1070 413d
00000170: 0000 0000 0000 0000 73c4 af3d dbca 28be
00000180: 216c 3ebd 0000 0000 0000 0000 e8de 0ebc
00000190: 9ac0 a4bb d89c 863c 2082 163d 56e1 a53b
000001a0: 1a9a 5dbe 0000 0000 c1ae 1fbc 0000 0000
000001b0: 1ab9 c4bb 0000 0000 63be 92bb 9abe a23d
000001c0: 7501 7a3d 530a 7cbe 14c6 d2bd 283f 15bc
000001d0: 0e54 00be 53bd 353e 2480 26bd 0000 0000
000001e0: 47fc 16bc 5226 2a3e 9525 e23d ceba 183e
000001f0: 0000 0000 0000 0000 c74c 21bd a620 04be
0.0059487084 0.0 0.0 0.0 -0.00680777 -0.01983578 0.03174758 0.0
0.0 0.09458286 -0.0077199293 -0.1401543 0.0 -0.36676493 0.1042271 -0.18989584
-0.19486056 -0.0060024587 0.0 0.0 0.0 0.0 -0.20731272 0.0
0.0 0.0 0.0 0.11105273 -0.12399417 0.0922633 0.0 -0.06735681
0.0 0.0 -0.046618972 0.0 0.0 0.0 -0.045443915 0.0
0.0 0.0 -0.0038614988 -0.100606754 0.12015052 0.0 -0.22313458 0.0
-0.00716896 -0.13191947 -0.012150568 0.0 0.0 0.17808005 0.0 -0.011742288
0.10039664 -0.020338947 0.0 0.0 0.0 -0.20381281 0.0 0.0
-0.014271912 0.0 -0.12458317 -0.1373225 -0.0076662553 -0.3102537 0.0 0.005576448
0.0 -0.12953976 -0.007348374 0.0 -0.30671355 -0.26773444 0.0 -0.19110152
0.0 0.0 0.0 0.0 0.019031508 0.0 0.0 -0.0039126887
-0.015376517 -0.13157296 0.0 0.04722601 0.0 0.0 0.085823916 -0.16483633
-0.04648984 0.0 0.0 -0.008720137 -0.0050278427 0.01643221 0.03674519 0.0050622625
-0.21640816 0.0 -0.009746254 0.0 -0.006003511 0.0 -0.0044782623 0.079465106
0.061036546 -0.24613313 -0.10291687 -0.009109296 -0.12532064 0.17748003 -0.04064955 0.0
-0.009215421 0.1661618 0.110423245 0.1491501 0.0 0.0 -0.03937986 -0.1290308

sequential_1/dense_1/MatMul f4 [128, 63]
00000000: cc02 853c a6b2 b13c c043 e7be 0a8c 953c
00000010: 5627 763c 6152 cc3e ae7b 2cbe e524 f93d
00000020: 1141 2c3f 5654 47be 4aeb 003d 504f 5e3f
00000030: 962d 0abf 1d1e ccbe dd0b 843f 0a1d 453e
00000040: e225 39be a3f2 b53f be14 1fbd e61e 2ebe
00000050: bfc0 963f 4e41 033e 4b00 253e 41bd 883f
00000060: 79ae 833e ff7a 05bc e4aa 673f dcd3 5dbd
00000070: dbf5 bdbd 28f1 d53f d301 f13d 127c 5f3e
00000080: 9b57 5e3f b476 7a3e 96a2 f83e 216d 283f
00000090: e338 4a3e e4c5 153f 5c70 dc3e 7bcf be3d
000000a0: ac2e c53b a0c4 a63f 7816 f3bc f9e2 2d3d
000000b0: 9fd6 013f 2b60 103e 582e 2ebe 514a fc3e
000000c0: 3a15 23bd ee1b 1e3e c83f 453f 66ce dd3c
000000d0: 6e3d 033e 7b69 863f f8f1 343e b7b7 3c3d
000000e0: f9a1 f03e 4b74 3fbd 81c1 a6be 0b8f a3bd
000000f0: 399c c7bd efea b2bd bf54 c0be 1ada 63bd
00000100: a836 073d ee27 233e a052 b43b 58cf 133d
00000110: 182c bd3d a31d 99bd 98eb 923d d486 79bd
00000120: 4441 f7bd d2d3 0dbe 4ce7 2c3e 04e7 51bd
00000130: 8026 3bbb 5ca0 213d 2a1a b2bd 00e0 24ba
00000140: f03e d8bd 0c62 b83d 906e 233e 8f56 8abd
00000150: 54b0 f53d 5bc2 bbbd f24d c8bd 2484 4abd
00000160: d000 123e 002e ff3c 9c4c 11be 10f1 163e
00000170: 4bed 18be 9c91 02bd 65ff 95bd e800 143e
00000180: 28f0 0fbe 7075 f63d 5a31 0a3e 108e 4fbc
00000190: 68bc a83d 08f1 80bd 0ab2 2bbe e30e 32be
000001a0: 587b c33d 60cd 79bd 2c0b 06bd 9cb0 313e
000001b0: b589 99bd 8c13 34be f6c8 12be a097 c53b
000001c0: 280a de3d fac8 e8bd c9ca 87bd 2002 983d
000001d0: 6222 893d 2160 d5bd fc20 59bd bcd0 29be
000001e0: 905b 3d3c 2063 8b3d dc15 00bd d9de 29be
000001f0: a225 0b3e 8033 6b3b 7079 0dbd 9cc3 853d
00000200: 387e ec3c 70fa f3bc 3ea2 cfbd 1466 1f3e
00000210: a8ca 68bd e88e 0ebe bbcc 91bd f421 1bbd
00000220: 106a 243d 9c62 1ebe cc46 9dbd 193b c3bd
00000230: 1643 183e 34bc 303e f242 7fbd b259 1f3e
00000240: 59d0 cbbd 6c88 2fbd c00f 303b 3020 d5bd
00000250: d8ab 32be 48a3 d83c 7a5a 26be 74bd 333e
00000260: c052 893d 9010 26bd b8af 343e dc3e ea3d
00000270: 4877 f4bd da19 1e3e a885 2ebd ec39 10be
00000280: b42f 55bd 7eae 75bd 1a73 063e 90d2 95bc
00000290: 0ede 7abd 70d9 2b3e 8088 793b db86 33be
000002a0: e839 cf3c 702b 43bc f884 abbc 9af4 2fbe
000002b0: 281b b83d e09f c6bc d441 093d c0c2 e63b
000002c0: 8490 55bd 5a7b 05be 6064 253d a009 9f3c
000002d0: 1a24 9ebd c219 263e a8ae 263e 8062 81bc
000002e0: 6c1c d6bd a019 7cbd 1fda e9bd 68f1 3c3d
000002f0: 2941 aabd 00a0 13be 7022 c43c 6046 5d3d
00000300: 941d 883d 809b 253b 9ae5 c3bd 301a 823c
00000310: 84b4 3dbd f5bc 1ebe 5e2e b5bd 989d a2bd
00000320: bfc7 b1bd 9434 533d 4c8d e63d d29e 17be
00000330: 2094 31bd 23f3 e5bd 04e7 e33d dea6 153e
00000340: f8aa 323d 04a5 c03d f0aa c43d 78ae 9f3c
00000350: 00ba 19bb 35ff a8bd 40af 323b 88f8 b0bd
00000360: 7487 b13d 0895 1f3d 3407 f3bd 134e d2bd
00000370: 8023 75bc 20ae bb3d 10af fc3d 0d8f 93bd
00000380: 887b 993d 804d 26bb 6095 cc3d ee42 2f3e
00000390: 7115 25be 9249 93bd 7050 643c 90bc fb3d
000003a0: d60f d9bd c0d6 ee3d 6e10 1e3e 4003 fd3b
000003b0: 9aff 72bd 908c 563c 704d 273c b838 ce3d
000003c0: f850 c5bc 65c9 a1bd 48f4 88bd e801 dcbc
000003d0: e667 ffbd 6d6b 31be 9095 7abd d21d 8cbd
000003e0: 043c ca3d 4c38 f3bd 0fdf 1abe 0aa6 233e
000003f0: 2d23 0bbe 68ee efbd 45b8 223e 218a 0e3e
0.016236685 0.021691632 -0.45168877 0.018255252 0.015024027 0.399066 -0.16844055 0.1216524
0.67286783 -0.19465765 0.03147439 0.8683977 -0.5397581 -0.39866725 1.031612 0.19249359
-0.18080857 1.4214672 -0.03883814 -0.17003974 1.1777571 0.1281788 0.16113393 1.0682756
0.2571905 -0.008147 0.90495133 -0.054157123 -0.09275409 1.671422 0.11767926 0.21824673
0.86852425 0.24459344 0.48561543 0.6579152 0.19748263 0.5850508 0.43054473 0.093169175
0.0060175266 1.3028755 -0.0296738 0.042452786 0.5071811 0.14099185 -0.17009866 0.4927545
-0.039815165 0.15440342 0.7705045 0.027075958 0.12816402 1.050094 0.17670429 0.04607364
0.46998575 -0.046741765 -0.32569507 -0.07986268 -0.09746594 -0.08736216 -0.37564656 -0.05562792
0.03301111 0.159332 0.0055030137 0.03608641 0.09236926 -0.07476356 0.07173842 -0.060919598
-0.12072995 -0.13850334 0.16885108 -0.051245704 -0.0028556883 0.03945957 -0.08696397 -0.0006289482
-0.105588794 0.09003076 0.15960145 -0.06754791 0.119965225 -0.0916793 -0.09780492 -0.049442425
0.14258122 0.031149864 -0.1418938 0.14740396 -0.1493427 -0.031877145 -0.07324103 0.1445347
-0.14056456 0.12034118 0.13495389 -0.012668148 0.08239061 -0.06295973 -0.16767135 -0.17388491
0.0954501 -0.060986876 -0.032725498 0.17352527 -0.07496969 -0.17585582 -0.14334473 0.006030038
0.10841781 -0.11366458 -0.06630475 0.0742228 0.06696011 -0.10418726 -0.053009972 -0.16583532
0.011557475 0.06806016 -0.031270847 -0.16588916 0.13588575 0.003588885 -0.03453964 0.0653145
0.02886878 -0.029782504 -0.10138367 0.15566283 -0.056833893 -0.13921702 -0.07119127 -0.037874177
0.04014021 -0.15467304 -0.07679519 -0.09532756 0.14869341 0.17259294 -0.062319703 0.1556156
-0.099518485 -0.04285471 0.0026864856 -0.1040653 -0.17448366 0.026445046 -0.16245452 0.1755274
0.067052364 -0.04054314 0.17645156 0.11437771 -0.119368136 0.15439549 -0.042607933 -0.14084595
-0.052047446 -0.05998086 0.13129845 -0.01828888 -0.061246924 0.16782165 0.0038075745 -0.17531912
0.025296167 -0.011912212 -0.020937428 -0.17183152 0.08989555 -0.024246156 0.033510044 0.007042259
-0.052139774 -0.13035336 0.04037893 0.01941377 -0.077217296 0.16220763 0.16277564 -0.015794039
-0.1045464 -0.061547875 -0.114185564 0.04612866 -0.083132096 -0.14416504 0.023942202 0.054022193
0.066462666 0.0025269687 -0.095652774 0.015881628 -0.04631473 -0.15501769 -0.088467345 -0.07940215
-0.08680677 0.051563814 0.11257419 -0.14806679 -0.043354154 -0.11228015 0.11128047 0.14614436
0.04362008 0.09406474 0.09602916 0.019492373 -0.0023456812 -0.08251802 0.0027265102 -0.086411536
0.08668414 0.038960487 -0.11866608 -0.10268798 -0.014962077 0.09164071 0.12338078 -0.07205019
0.07494265 -0.0025375783 0.099894285 0.17115375 -0.1612146 -0.07191767 0.013935193 0.12291825
-0.105987236 0.11662054 0.15435955 0.0077213347 -0.059325792 0.013095036 0.010211334 0.10069412
-0.02408646 -0.07899741 -0.06687218 -0.026856378 -0.12470989 -0.17326136 -0.06117779 -0.06841625
0.09874728 -0.11875972 -0.15124153 0.15981308 -0.13587637 -0.11715394 0.15890606 0.1391988
